hw1/model.npy (npy, 1432 bytes, 1 tensors)

array f8 [163, 1]
21.370245889155903 0.38695540713168836 -0.8482533092667636 1.0855690184339266 -1.6124530130362997 -0.031127011909947093 0.9608390510562635 -0.393711665093086
-1.6234197648199786 1.9887717497500579 -0.2943868379347017 0.1471927391717965 0.08690214826063827 0.08680970053865121 0.0051832389160158835 -0.02596417971897634
-0.18312073648303004 0.15421762443337894 0.5129757901549925 0.05369959822935996 -0.02747458431772303 0.06385586506389752 -0.16149451383233596 0.15149403735719216
-0.022570139588275074 -0.16676393790946054 0.08063364969614245 0.4050948021871204 -0.2958052536558306 0.38955042858048206 -0.2515878430815159 0.2834189924286919
0.33921829791338365 -0.506744748125811 0.07764984044400189 0.16765348503129263 0.07838585251487915 0.1015396062878945 0.0883545160185149 0.23944096374786997
-0.8896675446076359 -0.4423587453942758 -0.5304410610057005 -0.051849300594251885 -0.47287027505991325 -0.6394311454697309 0.29935874087438746 -0.14695314834414314
-0.23241920174034708 -2.374361898120603 -1.3917890010155924 -0.9048843279118615 -0.6012386886754704 -2.513126526305354 0.28451923190228284 -0.04720874519378468
-0.4592390336474941 0.1714223906715123 2.7085378249831225 1.5504202085592385 1.1978497333893168 0.34241273771857855 2.378184363651586 1.7605087200085634
-0.0011009939780496911 0.2718737631260685 -0.20154345971532245 -0.3563084091249082 0.02657815565193525 -0.6280327625417207 -0.37541170535543494 -0.25687521604640295
1.8432162466951127 0.22202663370437542 0.23371476010811515 -0.7857992058930016 1.1134505854792611 -0.21590297579033174 -1.011771055200042 1.0089134164175744
-0.06576362588302781 0.9266202994302246 -0.593419202302462 -0.20450879910459407 3.53981650573605 -3.8881958883315266 -0.3399334059475207 8.119629197898965
-9.197743152449672 0.4172709410923648 15.798922417699853 0.07678591891239576 -0.01847987760790616 -0.09544750220326378 0.02051925698150164 -0.1152729731973247
0.10138666303175009 0.03624954428127286 -0.08289119515881861 -0.16120327682916893 -0.12026284837047091 0.2657542480757168 0.3065870793668621 -0.8019956163921952
-0.595234240903477 1.1024002750601105 -1.2363351203134518 0.015173652762603207 0.6765270864963323 -0.5197460253829858 0.6061501594583575 -0.13477516245881338
-0.09873793566869883 -0.015565884516497413 0.09941732907382798 -0.20903058136561645 0.2584538678591546 0.26871132605247045 0.31523149131678246 -0.32716174413735627
0.13538566610399472 -0.4130809360364057 -0.10690870197782223 0.3394672326088839 0.08288928485125008 -0.3394795456190542 -0.14337848199184397 -0.04404877616724048
0.28822112056399635 -0.031715292460234155 0.18016696038481625 0.04278617598985385 0.1710313266411036 -0.2432925276764697 0.11480967513034449 0.026493136220529793
-0.19405004483501634 -0.09844389581675585 0.0815257605910098 -0.17983267373436826 0.03809645608955124 -0.000635304980564205 -0.0022997752139052472 -0.2278481437674873
0.04333132870081489 -0.19070245391039506 -0.13881240403429668 0.253972690706306 0.0841263850674885 -0.1048953885493083 -0.0816628621755641 -0.03520753814671316
-0.0068146376930911775 -0.13320721180296566 -0.01730659450470264 0.1880456568682206 -0.14667627020596957 -0.2329820061532588 -0.05440173423696216 0.35881002569804205
-0.005014263471578852 -0.33569436951456244 0.2107959252555526
00000000: 2e67 416f c85e 3540 9905 a99c e0c3 d83f
00000010: e5c8 c01f e424 ebbf b397 7b9e 7d5e f13f
00000020: b93d d587 9bcc f9bf aea2 b368 c2df 9fbf
00000030: d333 a089 31bf ee3f 7f39 6869 9232 d9bf
00000040: 224f d900 87f9 f9bf c229 8653 02d2 ff3f
00000050: 755a 53e4 3bd7 d2bf 8bcb 7930 36d7 c23f
00000060: 2249 bb1c 383f b63f dfff c918 2939 b63f
00000070: 6335 1b1a 053b 753f 9cb8 0a9b 5a96 9abf
00000080: 87ff 3413 8070 c7bf 043f b432 67bd c33f
00000090: dc5f 4b34 4c6a e03f 5c29 6884 837e ab3f
000000a0: 2e98 7624 4c22 9cbf 5973 1ba4 db58 b03f
000000b0: bd57 b22b daab c4bf 757b fe17 2864 c33f
000000c0: ed57 976d a01c 97bf 5895 bc4d 8558 c5bf
000000d0: e4ec 6628 68a4 b43f e116 cbbf 12ed d93f
000000e0: 27f4 9b28 79ee d2bf 5057 b9eb 64ee d83f
000000f0: 77cd 86e5 031a d0bf e9f9 e269 8923 d23f
00000100: 8289 efa9 c0b5 d53f fdd7 13c3 4037 e0bf
00000110: 9621 3f25 dce0 b33f b489 a25d ab75 c53f
00000120: 863e 0561 1811 b43f 4956 41e8 7ffe b93f
00000130: c4e0 c0cc 669e b63f 5d56 4f62 00a6 ce3f
00000140: 9ae0 0c12 2878 ecbf 325a 240e 9b4f dcbf
00000150: 6733 2f88 5ff9 e0bf b4dd bed4 fd8b aabf
00000160: a580 a8af 8143 debf 13c3 3a4e 3876 e4bf
00000170: 61f1 7490 b128 d33f a256 175b 5ccf c2bf
00000180: baf6 3793 e9bf cdbf 2e5f 6a73 b1fe 02c0
00000190: 31b6 248b c444 f6bf 9a6b 61fa cff4 ecbf
000001a0: 2c6f 1eeb 583d e3bf 5b88 8914 e21a 04c0
000001b0: 339d 0627 9035 d23f ac8f 62a1 be2b a8bf
000001c0: 2402 a41d 2c64 ddbf 733e de3c 2bf1 c53f
000001d0: 7a40 12e1 15ab 0540 611c ad6b 85ce f83f
000001e0: f7de 667b 642a f33f 370c 8f1d 17ea d53f
000001f0: e3ef 0d86 8506 0340 5327 0c31 0b2b fc3f
00000200: ff86 3e48 e709 52bf 2215 5136 6166 d13f
00000210: b699 1914 2dcc c9bf 1bcd 1ec9 c1cd d6bf
00000220: a992 40d5 4d37 9b3f f9dc fd29 d818 e4bf
00000230: 2d61 42d1 be06 d8bf 809f 04bf a470 d0bf
00000240: 9a2e b051 d07d fd3f 36f6 4c65 5e6b cc3f
00000250: 22e0 a081 5dea cd3f 1310 5160 4425 e9bf
00000260: 1587 a58f b1d0 f13f 7a74 106e b5a2 cbbf
00000270: 3bfa 91d8 3630 f0bf 5225 0065 8224 f03f
00000280: 8c19 6f8e e2d5 b0bf f299 3b9d dfa6 ed3f
00000290: b2a3 5644 4afd e2bf ec00 f325 582d cabf
000002a0: 93d1 ef50 8b51 0c40 c79a 2672 061b 0fc0
000002b0: 1733 570b 78c1 d5bf db3e c909 403d 2040
000002c0: fe8e 2997 3e65 22c0 b905 642d 91b4 da3f
000002d0: ce1f f05b 0c99 2f40 eba4 85f2 3da8 b33f
000002e0: a414 d797 63ec 92bf f6a9 725c 3f6f b8bf
000002f0: 8ff0 b106 0003 953f 0bc5 fe91 8782 bdbf
00000300: fcd0 f8f1 79f4 b93f 58ae 5dde 4c8f a23f
00000310: e95e 557c 5b38 b5bf e1a1 fe18 4fa2 c4bf
00000320: 74cb acc8 8bc9 bebf 9287 101b 1e02 d13f
00000330: e36f d069 1f9f d33f 2b13 feb5 f2a9 e9bf
00000340: 6679 c4ad 280c e3bf d6c0 8778 6ea3 f13f
00000350: af47 ca55 07c8 f3bf 8d8a 0233 5d13 8f3f
00000360: 6384 eb21 1ca6 e53f 7ede a76a c2a1 e0bf
00000370: b3d7 ea04 9565 e33f b06e 8901 5040 c1bf
00000380: 4155 92ac e346 b9bf f60e 74a7 01e1 8fbf
00000390: 5b1b 0701 6a73 b93f e322 6a9b 83c1 cabf
000003a0: a0b4 7e17 828a d03f 2773 5dfd 9032 d13f
000003b0: 2dfe 77b4 c02c d43f fd9f e4cf 37f0 d4bf
000003c0: 48c5 2148 5154 c13f d227 b805 eb6f dabf
000003d0: fa0d a762 5e5e bbbf 1c9a 87c5 d4b9 d53f
000003e0: 8cfc 9f6f 3b38 b53f d710 866a 08ba d5bf
000003f0: bf73 8de1 395a c2bf d45d 22aa 8f8d a6bf
00000400: 83af b5ff 3672 d23f 1bb0 cc9f fc3c a0bf
00000410: eb14 5601 b60f c73f 48d4 31d5 11e8 a53f
00000420: 9eec 41c1 5ae4 c53f 78a5 dda4 3524 cfbf
00000430: b2ff f2b7 2a64 bd3f 71e7 8a46 0421 9b3f
00000440: fd46 2dc2 a1d6 c8bf 9917 0681 9e33 b9bf
00000450: 0019 854b dfde b43f 277e 38ce c104 c7bf
00000460: ee09 fff1 6081 a33f 973c a80e 53d1 44bf
00000470: 26b7 9e6a fad6 62bf d8c3 f7c2 202a cdbf
00000480: 4d0f 531f 862f a63f b3f2 6721 f068 c8bf
00000490: ea9f cdd7 9ac4 c1bf 0849 2aac 1641 d03f
000004a0: 0177 9888 4e89 b53f c40b 5297 6cda babf
000004b0: 6a80 577a dbe7 b4bf 3d5b d3f1 b806 a2bf
000004c0: 5d26 6a60 aae9 7bbf 977d 2415 ef0c c1bf
000004d0: c57f 9ce5 d1b8 91bf 34b1 334d e111 c83f
000004e0: 9623 d1bb 49c6 c2bf 380b 7eb8 5ad2 cdbf
000004f0: 7170 c94a 8bda abbf 9166 7653 bef6 d63f
00000500: 02bc fb19 d689 74bf 740c a13c 047c d5bf
00000510: ed23 8d62 5cfb ca3f
