hw1/model_best.npy (npy, 1312 bytes, 1 tensors)

array f8 [148, 1]
0	0x403592c108b44241	21.573257965095994
1	0xbfd3f345e39cd5f8	-0.3117232058314978
2	0x3fb2b4143d247429	0.07306028835996926
3	0x3fd29d7c7647e884	0.29086219359272314
4	0xbf7b2b32d97b5ea6	-0.006632994299898753
5	0xbfcf460338b3cf19	-0.24432411450072136
6	0xbf9f073790ab7783	-0.030300968365615254
7	0x3fc9da720cc9c29b	0.20197892784519386
8	0x3fc62ebe2a958a84	0.17330147818855235
9	0x3fb0aeec839d8261	0.06516912663711018
10	0x3f96b49f537eeca7	0.02217339465253745
11	0x3fabe14431eb6d01	0.05445302113886364
12	0x3f8c2ae10eccac42	0.013753660453934672
13	0xbfbe0db4955fd9e1	-0.11739662787281403
14	0x3fbc71777230cf91	0.11110636270387732
15	0x3f8b912c864f54a4	0.013460491036236207
16	0x3fdb6297545670e8	0.4278925250635113
17	0xbfa7124c29d0147e	-0.04506147394571601
18	0x3fe95ea1b8529bd4	0.7928017234852356
19	0xbfce1c85b20edbfd	-0.23524542993774836
20	0x3fd678ef957741b3	0.351131339991322
21	0xbfcc109a7dc8d5dd	-0.2192566980535692
22	0x3fc6c70578c94e37	0.17794865033884985
23	0x3fd6506208bc71e1	0.3486561856568909
24	0xbfd78e6255803858	-0.3680654368371328
25	0x3f930c3b78699469	0.018601350044623297
26	0x3f78fe1cee3a3258	0.006101716051159466
27	0xbfb4c2861a8fe735	-0.08109319828500079
28	0x3fb3b9c7cf5bea5e	0.0770535355804127
29	0xbfc21dff97ed4fb8	-0.14154047888098176
30	0x3fb82a68383abc56	0.09439708111561748
31	0xbfd5d938da522406	-0.34138318367382714
32	0xbfca536d81f5d66f	-0.20567101331441814
33	0xbfd33011311c51de	-0.2998087863536777
34	0xbfb97c0eb7ad4e07	-0.09954921707440444
35	0xbfc0cde4009e5c01	-0.13128328352169663
36	0xbfe3ae129cf3a511	-0.6149991097892401
37	0x3fd1d3cd0ae476fe	0.2785523039218417
38	0xbfe3a7646b2855de	-0.6141836254998301
39	0xbfdbc38b45e17a7b	-0.43381006073278855
40	0xbff03b423f62081f	-1.014467475499721
41	0xbfe335f6d2d890d4	-0.6003374212346224
42	0xbfd03748eab8853b	-0.2533743183322092
43	0xbfe696293df60e38	-0.7058302126101301
44	0xbff53d317674d97d	-1.327439749451144
45	0x3ff161c6d1c97587	1.0863712496569364
46	0xbfab0dad3902e409	-0.05283871956766723
47	0x3fca1adcdea54d7a	0.2039447867524407
48	0x3fdfff543edbb183	0.4999590505456341
49	0x3fecb81c2d8896f7	0.8974743737532823
50	0x3fe9bf02c534f022	0.8045667506880856
51	0x3fdd6c931533138b	0.45975186414971664
52	0x3fd3417df7afbdd6	0.30087231815465765
53	0x3ff4fef7f63aa469	1.3122481935809225
54	0x3fe78b6fa3e80d77	0.7357710076616247
55	0xbfa49b376988b14d	-0.040246707565844454
56	0x3fd1f6fc8e464412	0.28069986242286504
57	0xbfc317120efac759	-0.14914155703950874
58	0xbfdf48de2b4b3e7c	-0.4888225004951676
59	0x3fa4022df10a6a69	0.039079127954399
60	0xbfd7ccfe840dad80	-0.37188685317843095
61	0xbfe41942358e2e1a	-0.6280833288196306
62	0xbfc7b0793f446202	-0.1850730475350844
63	0x4003a14e590a50e6	2.453762717845268
64	0x3fa9992c5a707e72	0.04999674419400159
65	0x3fcdefd1c3e02e4f	0.2338812071251248
66	0xbfca52519709378f	-0.20563716769032367
67	0x3fd6607a40c510cd	0.34963852238821574
68	0xbfd2a4a79c1f4c53	-0.2912997269278936
69	0x3fbe5e77ef4d0a0c	0.11862897484119389
70	0xbfc243903949d337	-0.1426868705490507
71	0x3fc82a6046a60fa2	0.1887932152714003
72	0x3ff40a5879710291	1.2525257819944822
73	0xbfe3b3726cbea23e	-0.6156551479262544
74	0xbfd6afb1a695c447	-0.3544735075766465
75	0x400e89bd2ea028c9	3.8172553675295586
76	0xc010d05c10153326	-4.203476191801007
77	0xbfe02d846ba72732	-0.5055563070866127
78	0x4021d59b29a12bd8	8.917199421810366
79	0xc014b51bf23dcd05	-5.176864419004464
80	0x3ff7821a2be90db3	1.4692632403610844
81	0x401c821ff19e6385	7.127074981014521
82	0x3faab6ff9327f054	0.052177416528110726
83	0xbf96b9fa597ac9ef	-0.02219382449283985
84	0xbfbf76492d53a869	-0.12289864880190894
85	0x3f97005597a84324	0.022462212926316685
86	0xbfbb18817d1775ef	-0.10584267906184384
87	0x3fb3bf666b01e0f1	0.07713928329929211
88	0x3fc00cda2ed2dba0	0.1253922203665896
89	0x3fb3579f5a4a3174	0.07555576280919302
90	0xbfd1319763c86f60	-0.2686518167918077
91	0xbfc2307ac8246f46	-0.14210448048185692
92	0x3fde1e1a12934716	0.47058727087015606
93	0x3fbae497bd85041c	0.10505054833358013
94	0xbfdf453a14a838a4	-0.48860027329727473
95	0xbfd64da69c357bca	-0.3484894299962745
96	0x3fe2c2bb1335782e	0.5862708449528833
97	0xbfee54818dc634bf	-0.947815682318513
98	0x3fdefe5065411490	0.484272097474169
99	0x3fa8f2dd062c43b3	0.04872790050843125
100	0xbfdf535e5dc02087	-0.48946341662713916
101	0x3fe203888f531450	0.5629313277537538
102	0xbfbd0a8a846a1342	-0.11344209416172382
103	0xbfbb4a30a84f89cc	-0.10660080060146199
104	0xbfb9d95fcff3d7da	-0.10097311808553347
105	0x3fc32f1d6c055ecd	0.14987533354245955
106	0xbfcc757b765d4393	-0.2223352745009178
107	0x3fb19a56696ac46d	0.06876125405939755
108	0x3ff0309581e2dae1	1.0118613313367677
109	0x3fd23a3e590d5c1d	0.28480490395071617
110	0xbfd1f84539d67041	-0.28077822349746745
111	0x3fab7bd5425f86b1	0.05367914614886383
112	0xbfcf2675a4758422	-0.24336119203783918
113	0xbfbd29a72580c519	-0.11391682305908936
114	0x3fd3ddcf6edd4c52	0.3104132254276851
115	0x3fc3a8f979317684	0.1535941926730865
116	0xbfd1c0c1286bbf51	-0.2773898024306521
117	0xbfb3670f4bfa4f62	-0.0757913170330631
118	0xbfc2040c49f32a98	-0.14074853525956565
119	0x3fb3d7e3c79b1afc	0.07751296637716715
120	0xbfa63ab783d23f08	-0.04341672405382552
121	0x3fb9c67525a0467c	0.1006844727383171
122	0xbf79e7fdbb4cb7c8	-0.00632475961610441
123	0x3fc6508fe0595d6b	0.17433355764908795
124	0xbfca92e645187c10	-0.20760801671801277
125	0x3f6e615ec89a61fd	0.003708539127569076
126	0x3fea0d2906c6a3a7	0.8141064770071481
127	0xbfe9f7c84c31ba7e	-0.8114968765419943
128	0x3fdf8fb5933ae495	0.49314631822523697
129	0xbfd7071328e3dca5	-0.35980681412861265
130	0xbfe7f38a17041509	-0.7484789323358721
131	0xbff6f6129c7318e2	-1.4350763427078665
132	0xbfef2e036fca41cf	-0.9743668731117
133	0x3fc67942af958ef9	0.17557557652900593
134	0xbfe8bf8cf274dee0	-0.7733826385001201
135	0xbfeac80ea48d6d29	-0.8369210447230319
136	0xc012371289fc8573	-4.553781658208538
137	0xbfef0e365af3e54e	-0.9704849029941813
138	0x3fdb2872b9cbc1ad	0.4243437590039559
139	0xbfcb7da806ff4b1f	-0.21477222768461332
140	0xbfd987a3f05d0414	-0.39890383217795145
141	0xbfb658526118b034	-0.08728518362539789
142	0xbffbbd4bb9725f72	-1.7337147945417795
143	0xbfcca3ca4e0e542d	-0.22374848185850862
144	0x401f56dc1a7617c1	7.8348240027025335
145	0x3fe9656f35136bb4	0.7936321293485578
146	0x400f7c5c93908d98	3.9357234505166154
147	0xbfbb070178ab838e	-0.10557564922375048
