hw7/model.pkl (torch_old, 657851 bytes, 17 tensors)

autoencoder.encoder1.0.weight f4 [20, 3, 5, 5]
0.049990874 -0.059510686 0.0006546598 0.09037497 -0.030926233 0.013311854 -0.065653674 -0.010134858
0.023183266 -0.046814643 -0.10177097 0.0014553424 -0.0376912 0.0698274 -0.07878951 -0.014742246
-0.074403785 -0.03902181 0.022171948 -0.06233416 0.0097883195 0.075958006 -0.0040449034 -0.052554026
-0.026702298 -0.03891798 0.070868514 0.00030208242 -0.045719594 0.06727059 0.0093078 -0.04360715
0.055970337 -0.015347004 0.012396016 0.020301731 -0.09173383 -0.02856476 -0.017305534 -0.004400043
-0.02080483 0.08864472 -0.009377094 0.055548888 0.000572602 0.05821819 0.0037081926 -0.04725704
-0.04306412 0.009215263 -0.03654528 0.013528103 -0.05118917 0.018432952 0.019254668 -0.029176682
0.11848674 -0.018535823 -0.046951063 0.049198437 0.013895121 0.015901035 0.044426713 -0.0988423
0.00062671764 0.051961094 -0.0635623 -0.030791257 -0.08949572 -0.014669057 -0.024058627 0.028937422
0.049542226 0.024062876 0.048175186 -0.09590346 0.07451134 -0.03535829 0.08338955 0.013583169
0.014932088 -0.042144813 0.002346081 0.08677015 0.054981854 -0.09759321 0.0011549015 -0.040329367
0.081558704 -0.02189753 -0.08619256 -0.049572937 0.10391256 0.16542286 -0.014694309 0.028243624
-0.019261507 -0.018181598 0.037546538 -0.024394065 -0.031623278 0.059560206 0.083783776 0.070896104
-0.033375666 -0.054769617 0.04975815 -0.030092575 -0.030399526 -0.009951681 -0.15719771 -0.030195499
0.10565549 0.1486664 -0.058978 -0.0854625 -0.06714491 0.035225928 -0.012181212 0.03912662
-0.024707329 -0.10565801 0.08088371 0.061536428 0.030454004 0.08483323 -0.09871929 0.122889854
-0.03372107 -0.014477009 -0.11001037 -0.076746576 0.113676324 0.08758363 -0.118938856 -0.13450274
-0.090571225 0.0458032 -0.04156635 0.09240005 -0.09397251 -0.02864302 -0.024405485 0.06173972
0.1213845 -0.12683444 0.015298609 0.037217505 0.06363851 0.0024033897 0.0058632614 0.07301235
0.040197197 0.02462734 -0.062547304 0.05420646 0.066596545 -0.04983191 -0.068288825 -6.776245e-05
0.027789667 0.089269355 0.03670161 -0.042434037 0.05967767 0.107557386 0.033271305 -0.017483825
-0.08122752 0.038664814 0.03762419 -0.031093014 -0.026461076 -0.08615372 -0.067330815 0.04206049
-0.06364649 -0.041750133 -0.06218887 -0.0779017 0.09362353 0.073539406 -0.10690382 -0.065402456
-0.012098371 -0.05878785 0.070540525 0.04440236 0.041013516 -0.118439205 -0.046711855 0.0018928254
0.024903426 -0.08423629 -0.1854422 0.08908824 0.014905708 -0.0202533 -0.07020369 0.015780728
0.060424775 0.032271285 -0.026907567 -0.09691157 -0.0803135 -0.021589143 -0.09854988 0.072200485
-0.0019710737 -0.03484573 0.030374587 -0.09826054 -0.06987125 -0.07290144 -0.10029806 0.028615125
-0.089175455 0.0043863337 0.038660426 -8.430501e-05 0.07103393 0.08598975 -0.09050873 -0.07534468
-0.014835778 0.027683562 -0.023174688 -0.044682804 -0.17414957 0.0602856 -0.025001636 0.029767426
0.027418956 -0.038679432 -0.020108739 0.027553007 -0.076881215 0.0876311 0.028941348 -0.124760434
-0.0098621715 -0.12444489 0.09000197 -0.09191485 0.05698326 -0.10232287 -0.013783063 -0.0821553
0.038095184 -0.08128725 -0.03621458 -0.093844466 0.009456027 -0.11473783 -0.07270967 -0.10728
00000000: 3bc3 4c3d 7ac1 73bd 7a9d 2b3a 8316 b93d
00000010: 0359 fdbc f619 5a3c 6f75 86bd ad0c 26bc
00000020: d5ea bd3c b6c0 3fbd 4c6d d0bd 30c1 be3a
00000030: 1662 1abd ab01 8f3d 655c a1bd 7689 71bc
00000040: 0361 98bd 55d5 1fbd f2a1 b53c 1b52 7fbd
00000050: 305f 203c df8f 9b3d 1c8b 84bb e442 57bd
00000060: c7be dabc 7668 1fbd 8323 913d d160 9e39
00000070: 7844 3bbd 2ac5 893d be7f 183c 699d 32bd
00000080: 2741 653d 0072 7bbc a918 4b3c d14f a63c
00000090: f2de bbbd a500 eabc 56c4 8dbc 3c2e 90bb
000000a0: e46e aabc 5d8b b53d 62a2 19bc 3b87 633d
000000b0: ab1a 163a 3276 6e3d 2605 733b 9990 41bd
000000c0: 0164 30bd 9dfb 163c 81b0 15bd faa4 5d3c
000000d0: bcab 51bd b400 973c f7bb 9d3c f003 efbc
000000e0: 2da9 f23d 70d8 97bc c24f 40bd 4d84 493d
000000f0: 5da8 633c e342 823c c9f8 353d d56d cabd
00000100: 4f4a 243a 28d5 543d f32c 82bd f23d fcbc
00000110: 8849 b7bd 7c56 70bc 9916 c5bc 2c0e ed3c
00000120: caec 4a3d 821f c53c 5853 453d 0969 c4bd
00000130: 6799 983d dbd3 10bd 24c8 aa3d f18b 5e3c
00000140: b7a5 743c 0aa0 2cbd b5c0 193b 8cb4 b13d
00000150: a734 613d f3de c7bd 1060 973a 6830 25bd
00000160: 4008 a73d 7362 b3bc ba85 b0bd fe0c 4bbd
00000170: 1cd0 d43d 9c64 293e 66c0 70bc 2c5f e73c
00000180: 4fca 9dbc 93f1 94bc 66ca 193d 10d6 c7bc
00000190: 6987 01bd 67f5 733d d496 ab3d fa31 913d
000001a0: ecb4 08bd 1b56 60bd 34cf 4b3d b484 f6bc
000001b0: 6d08 f9bc 600c 23bc 70f8 20be 8d5c f7bc
000001c0: e861 d83d 013c 183e ea92 71bd f706 afbd
000001d0: 4583 89bd 1049 103d b593 47bc 3c43 203d
000001e0: 0667 cabc 3a63 d8bd 5ca6 a53d 9f0d 7c3d
000001f0: ad7a f93c 0bbd ad3d 572d cabd adad fb3d
00000200: 1b1f 0abd fa30 6dbc 1e4d e1bd 4f2d 9dbd
00000210: 22cf e83d 0c5f b33d 3796 f3bd 16bb 09be
00000220: 687d b9bd 239c 3b3d 7a41 2abd 3d3c bd3d
00000230: a974 c0bd c4a4 eabc 03ee c7bc cae2 7c3d
00000240: 7098 f83d e3e0 01be 04a7 7a3c 6271 183d
00000250: e854 823d 3082 1d3b 9a20 c03b 8087 953d
00000260: d1a5 243d 46bf c93c cd18 80bd 9807 5e3d
00000270: c563 883d 8b1c 4cbd 03db 8bbd b01b 8eb8
00000280: 28a7 e33c dad2 b63d 6d54 163d 50cf 2dbd
00000290: 9370 743d 0c47 dc3d 7e47 083d 3d3a 8fbc
000002a0: 9d5a a6bd ff5e 1e3d d31b 1a3d c7b6 febc
000002b0: e6c4 d8bc 5d71 b0bd bde4 89bd 9f47 2c3d
000002c0: 1759 82bd 3002 2bbd c2b9 7ebd ed8a 9fbd
000002d0: b1bd bf3d d49b 963d 64f0 dabd b9f1 85bd
000002e0: 3f38 46bc 87cb 70bd 8d77 903d 40df 353d
000002f0: cafd 273d 4190 f2bd ee54 3fbd ae18 f83a
00000300: 4502 cc3c 1384 acbd 8fe4 3dbe e573 b63d
00000310: 1237 743c 40ea a5bc f4c6 8fbd 9646 813c
00000320: f87f 773d e52e 043d 426d dcbc 9379 c6bd
00000330: 677b a4bd b7db b0bc 85d4 c9bd d9dd 933d
00000340: 212d 01bb 65ba 0ebd 20d4 f83c d23c c9bd
00000350: a818 8fbd 5a4d 95bd 1269 cdbd 446a ea3c
00000360: 9fa1 b6bd 3cbb 8f3b 655a 1e3d e8cc b0b8
00000370: 3d7a 913d 651b b03d a45c b9bd 504e 9abd
00000380: c311 73bc a3c8 e23c d8d8 bdbc 5105 37bd
00000390: 4454 32be 09ee 763d 3bd0 ccbc d1da f33c
000003a0: b89d e03c 536e 1ebd 15bb a4bc d8b6 e13c
000003b0: e673 9dbd ef77 b33d 6816 ed3c 6682 ffbd
000003c0: f294 21bc f6dc febd f452 b83d da3d bcbd
000003d0: 4767 693d a78e d1bd 5bd2 61bc 0a41 a8bd
000003e0: b209 1c3d ee79 a6bd bd55 14bd 8731 c0bd
000003f0: 74ed 1a3c abfb eabd cfe8 94bd 9eb5 dbbd

autoencoder.encoder1.0.bias f4 [20]
0.31660858 -0.09753435 0.18137258 0.0028763777 -0.043949474 -0.26318383 -0.11678744 -0.0689585
-0.054741956 -0.13930741 -0.16237128 0.011688092 0.12621942 0.013771581 0.027336735 0.25120363
0.11140095 0.09975308 -0.010410792 -0.18196043
00000000: 851a a23e 17c0 c7bd bcb9 393e 9c81 3c3b
00000010: 5d04 34bd 08c0 86be 412e efbd 1d3a 8dbd
00000020: 1a39 60bd 9aa6 0ebe a844 26be 697f 3f3c
00000030: aa3f 013e 33a2 613c 4af1 df3c c39d 803e
00000040: 2e26 e43d 584b cc3d 0792 2abc d653 3abe

autoencoder.encoder1.2.weight f4 [40, 20, 5, 5]
-0.12321191 0.30884048 0.06414636 0.13277508 0.2930256 0.12249901 0.14667514 -0.053187337
-0.01839657 0.115785055 0.017863767 -0.0194481 -0.06701047 -0.027774509 -0.17042454 -0.010544199
-0.13804609 0.0039573763 -0.06557215 -0.1978479 -0.033571936 0.0786339 -0.19818802 -0.27857852
0.083971195 -0.021206735 0.03177736 0.19569227 0.44182935 0.24173738 0.061516654 -0.29943064
-0.13681443 -0.13801654 0.019747628 0.027201824 -0.15137866 0.015539949 0.085433595 0.13907258
0.025505757 0.04970066 0.045463894 -0.043281883 0.04249761 0.040145624 0.19183628 -0.03355815
-0.04398515 0.05373668 0.07887046 0.060075942 -0.078021124 0.1762406 0.13258435 -0.2298239
-0.0808303 0.24550533 0.023260558 0.16404967 -0.1569648 -0.21743496 0.14027414 0.053523798
0.02223245 -0.037342485 -0.1663833 -0.017493768 0.16870885 -0.035197817 -0.06450167 0.004209632
-0.13602567 -0.1320139 0.10314191 0.09519533 -0.23483983 -0.10072281 0.039250553 -0.13835333
0.1512633 -0.18090902 -0.28956717 -0.24102554 -0.14055844 0.11537503 -0.34187895 -0.3281495
-0.21429521 -0.47085103 0.26777562 -0.044818502 -0.2125139 -0.19232748 -0.5664937 0.14422
0.08452984 -0.011727995 0.048311815 -0.17413302 -0.15206324 -0.0063860626 0.11449825 -0.04619308
-0.27595192 0.14177041 0.095281765 0.14731842 0.030201152 -0.029598763 0.07610092 0.10020172
0.08264144 0.08770894 0.013561992 -0.07790301 0.004453841 -0.013209101 -0.19910565 -0.16721347
-0.09997156 0.04258057 0.009231986 0.03872727 0.1592584 -0.13035701 -0.26002446 0.011271949
0.15470143 0.16242109 -0.027535684 -0.2787657 -0.004774951 0.044939585 0.09815975 0.029092463
-0.042820875 0.068654366 -0.021075906 -0.123324685 0.101058714 -0.0033261178 0.040129498 -0.098982245
-0.11131352 0.115708314 0.22251934 0.16596228 0.04929675 0.12290412 0.13095263 -0.20623587
-0.16436046 -0.022121808 -0.23422846 0.0730234 -0.05602986 -0.018728884 0.1450864 -0.109612815
0.0030985698 0.0018157845 -0.07123608 -0.005432545 -0.041436974 0.04628083 0.067420945 0.03008582
-0.0124899205 0.041772444 0.09959003 -0.19287993 0.0519566 0.0139136445 -0.10043919 -0.2133709
-0.18555829 0.022690201 -0.09200305 -0.14641626 -0.012448828 -0.009399104 0.09548532 0.008770716
-0.07902621 0.03758634 0.021747526 0.082104765 0.059403952 0.07100463 0.029937059 0.042847674
-0.014309754 0.0031287416 0.042306088 -0.057959568 0.10055276 0.015383864 -0.021378782 0.0015025206
-0.08576215 -0.13369279 -0.09507211 -0.062189646 -0.09697905 0.04930147 0.06448425 0.073714055
0.08355079 0.02073123 0.051240474 0.016849972 0.00928417 0.03138957 0.04513921 0.03268629
0.014532896 -0.033915684 -0.065733045 0.04912198 -0.04306933 0.004167616 -0.016840164 -0.047949884
0.051540338 -0.03235578 -0.108898476 -0.08874638 -0.10999019 -0.13170338 -0.2518729 -0.0003125539
0.045886833 -0.19127014 -0.2792039 -0.3533311 0.13627812 0.12747064 -0.2758452 -0.3477333
-0.14215109 -0.052536514 0.0017988812 0.14244379 -0.09082897 -0.12058564 0.01828837 -0.06316246
0.18330438 0.045355674 -0.11667976 0.1456216 0.117072195 -0.054814808 -0.29241017 0.028449964
00000000: 8756 fcbd 5720 9e3e 2b5f 833d 31f6 073e
00000010: 7407 963e c3e0 fa3d 0232 163e f7da 59bd
00000020: 67b4 96bc b720 ed3d 0957 923c 9f51 9fbc
00000030: c93c 89bd 5e87 e3bc c583 2ebe 93c1 2cbc
00000040: f45b 0dbe e1ac 813b b14a 86bd a498 4abe
00000050: ba82 09bd cf0a a13d cdf1 4abe d8a1 8ebe
00000060: 17f9 ab3d bfb9 adbc fa28 023d 8e63 483e
00000070: 7537 e23e 018a 773e e3f8 7b3d f94e 99be
00000080: 1519 0cbe 3554 0dbe c7c5 a13c 5cd6 de3c
00000090: 0203 1bbe 459b 7e3c cff7 ae3d 0b69 0e3e
000000a0: 73f1 d03c eb92 4b3d 5938 3a3d 5848 31bd
000000b0: f911 2e3d bd6f 243d bb70 443e 4574 09bd
000000c0: c629 34bd fe1a 5c3d d686 a13d 3112 763d
000000d0: 8ac9 9fbd 6a78 343e 31c4 073e f556 6bbe
000000e0: 5b8a a5bd c065 7b3e ed8c be3c a3fc 273e
000000f0: 61bb 20be 45a7 5ebe 06a4 0f3e c53b 5b3d
00000100: d420 b63c 6ff4 18bd 6260 2abe 174f 8fbc
00000110: 03c2 2c3e 962b 10bd 7419 84bd f4f0 893b
00000120: 504a 0bbe a72e 07be 113c d33d c5f5 c23d
00000130: da79 70be c347 cebd 30c5 203d 7fac 0dbe
00000140: c4e4 1a3e 3740 39be 2642 94be 66cf 76be
00000150: 8dee 0fbe be49 ec3d c20a afbe 3603 a8be
00000160: 3470 5bbe 6313 f1be e319 893e 9b93 37bd
00000170: 3e9d 59be 7ff1 44be bb05 11bf 68ae 133e
00000180: fb1d ad3d c726 40bc 9ce2 453d ed4f 32be
00000190: 77b6 1bbe 2d42 d1bb 0f7e ea3d f434 3dbd
000001a0: 9249 8dbe 432c 113e 1623 c33d a4da 163e
000001b0: 6868 f73c 1b79 f2bc cdda 9b3d 8f36 cd3d
000001c0: ea3f a93d bfa0 b33d 1e33 5e3c 9d8b 9fbd
000001d0: 87f1 913b fc6a 58bc 5ae2 4bbe 023a 2bbe
000001e0: e4bd ccbd f768 2e3d c141 173c 7ca0 1e3d
000001f0: a214 233e 4f7c 05be ed21 85be fbad 383c
00000200: 0d6a 1e3e b751 263e 8492 e1bc 61ba 8ebe
00000210: 3177 9cbb 9212 383d fb07 c93d 5153 ee3c
00000220: f164 2fbd a99a 8c3d 61a7 acbc a791 fcbd
00000230: dff7 ce3d fffa 59bb d45e 243d 34b7 cabd
00000240: 58f8 e3bd 7bf8 ec3d 1cdc 633e 04f2 293e
00000250: 64eb 493d 28b5 fb3d 7218 063e 7f2f 53be
00000260: 1c4e 28be cb38 b5bc 96d9 6fbe 4b8d 953d
00000270: 917f 65bd 516d 99bc 8791 143e af7c e0bd
00000280: 6011 4b3b 9eff ed3a 39e4 91bd 7e03 b2bb
00000290: d1b9 29bd f890 3d3d fe13 8a3d 8a76 f63c
000002a0: 86a2 4cbc 9519 2b3d dcf5 cb3d 5182 45be
000002b0: 72d0 543d 0ef6 633c 10b3 cdbd e77d 5abe
000002c0: fe02 3ebe cde0 b93c 186c bcbd 25ee 15be
000002d0: 2bf6 4bbc b3fe 19bc cf8d c33d 0db3 0f3c
000002e0: 7ed8 a1bd 22f4 193d de27 b23c 8b26 a83d
000002f0: 8f51 733d e06a 913d 903e f53c 0b81 2f3d
00000300: 7573 6abc 930b 4d3b 2649 2d3d 0367 6dbd
00000310: 9bee cd3d 9a0c 7c3c 8e22 afbc 3af0 c43a
00000320: 11a4 afbd c3e6 08be 2bb5 c2bd 92ba 7ebd
00000330: f49c c6bd 57f0 493d 5210 843d 65f7 963d
00000340: ad1c ab3d 8ad4 a93c 88e1 513d f408 8a3c
00000350: a21c 183c 5a92 003d e4e3 383d 0fe2 053d
00000360: 621b 6e3c 2ceb 0abd 0c9f 86bd 2134 493d
00000370: 7769 30bd 7f90 883b 62f4 89bc 1967 44bd
00000380: f61b 533d 7f87 04bd 2a06 dfbd a9c0 b5bd
00000390: 8942 e1bd 40dd 06be 7cf5 80be 46de a3b9
000003a0: d5f3 3b3d 52dc 43be d0f3 8ebe d0e7 b4be
000003b0: 7e8c 0b3e aa87 023e 953b 8dbe 190a b2be
000003c0: 0e90 11be 8730 57bd 70c8 eb3a c9dc 113e
000003d0: 8a04 babd 9bf5 f6bd 7ed1 953c 525b 81bd
000003e0: 25b4 3b3e dfc6 393d ccf5 eebd d41d 153e
000003f0: 8cc3 ef3d 7e85 60bd c9b6 95be e60f e93c

autoencoder.encoder1.2.bias f4 [40]
-0.06891514 -0.025839275 -0.099586606 0.06306022 -0.035275515 0.044544213 -0.17289299 -0.0061495975
0.16103634 -0.08213579 -0.13910276 0.09027791 -0.048380505 -0.111267425 -0.16652678 -0.044610273
0.14616492 -0.099522404 -0.1550804 -0.049298227 -0.02159048 -0.064483956 -0.08466072 0.0152412485
-0.02278076 -0.10570118 -0.102886535 -0.059893295 -0.019845301 0.031126041 -0.08310799 0.030889632
0.027611565 0.0134186065 -0.13061133 -0.0041906172 0.022698563 0.050581403 -0.01836746 0.057057753
00000000: 6223 8dbd e3ac d3bc 10f4 cbbd b725 813d
00000010: 0f7d 10bd fe73 363d dc0a 31be 9082 c9bb
00000020: b6e6 243e cf36 a8bd f470 0ebe a0e3 b83d
00000030: a32a 46bd 2de0 e3bd ff85 2abe 43b9 36bd
00000040: 42ac 153e 67d2 cbbd 65cd 1ebe f0ec 49bd
00000050: 85de b0bc 2a10 84bd 9962 adbd 6eb6 793c
00000060: b79e babc dc79 d8bd 2db6 d2bd ac52 75bd
00000070: 9d92 a2bc 0afc fe3c 8634 aabd 410c fd3c
00000080: a631 e23c b7d9 5b3c fabe 05be 7251 89bb
00000090: 56f2 b93c 722e 4f3d 5b77 96bc 64b5 693d

autoencoder.encoder1.4.weight f4 [80, 40, 3, 3]
-0.050947588 0.038274314 -0.06066527 0.01614879 -0.049445797 -0.08341461 -0.012938978 -0.029082064
-0.053574596 -0.07999441 -0.11651861 -0.03373942 -0.04511169 -0.09794713 -0.14185737 -0.15333778
-0.050743826 0.114226975 0.03527829 -0.0029358913 0.04633504 0.06751722 -0.024110584 0.017264364
-0.02515052 0.054957114 0.047355346 0.105605625 -0.030153768 0.01623763 -0.04177012 0.018629817
-0.0063662487 -0.06885484 0.047235943 0.08213195 0.067930564 -0.028690368 -0.06024022 -0.07437768
-0.009805389 -0.06904113 -0.011963594 0.026736993 -0.0103460355 -0.071358934 -0.0009842584 -0.08022204
-0.10925558 0.037475966 -0.029687393 -0.062085263 -0.01555757 -0.017790087 0.023730345 -0.024804683
-0.006169708 -0.013851704 0.0028967834 0.14824489 -0.016793452 0.03520373 0.02232053 -0.035737295
0.005438585 -0.02764143 -0.012190168 -0.0092238365 0.014566615 0.043782327 0.06907623 -0.112083286
0.0090227015 -0.08258931 0.07382414 -0.02225396 0.0154194785 -0.03453066 -0.0080658505 -0.05767977
-0.043987412 0.011147045 -0.0060626175 0.029912954 -0.011516993 -0.029207805 0.040322088 0.031563964
0.030311283 0.041225508 0.055510093 -0.013488851 0.04939918 0.030919531 -0.07697334 -0.032831926
-0.031185625 0.09860566 0.047607023 0.0595667 0.013511561 0.041449968 0.038487144 -0.095157675
-0.0036963597 -0.052890003 -0.0120142 -0.058237918 0.04066223 -0.036540266 0.008573786 0.010411602
0.017588602 -0.1307404 0.0066715744 0.06538984 -0.057062622 -0.011427491 -0.10452209 -0.077536814
0.060496807 0.031298753 0.053587977 -0.016334208 0.0025847054 0.06820527 0.04795073 0.1303543
0.0030630725 -0.0025196103 0.044006918 -0.06306269 0.02666812 0.08171417 -0.0011630133 0.011734457
0.010311294 -0.052913867 -0.07783364 -0.041956693 -0.077165775 0.0024346053 0.009945051 -0.048876274
0.04992165 -0.01768842 0.015964564 0.029924648 0.016271379 0.051691156 0.008487683 -0.07429981
0.006515276 -0.029650267 -0.03260909 -0.05941316 -0.049144167 -0.12770815 -0.06847883 -0.11557228
0.029718341 0.006699893 -0.064235836 -0.054972604 -0.10353529 0.079948485 0.022841135 0.025549838
-0.052790597 0.03828885 -0.011631528 -0.061110422 -0.05101055 -0.09485359 0.03999292 0.0662499
-0.055247832 -0.028866088 0.04227546 -0.025074372 -0.071623966 -0.048897475 0.032825682 -0.057109144
0.040990468 -0.029236844 -0.03442813 -0.14085278 -0.038350593 -0.010355106 -0.033840626 -0.047852725
-0.0041742474 -0.047701243 -0.0033954373 0.049045883 0.031960174 0.048955258 -0.07053549 0.04401725
0.018985922 0.07036486 -0.043555077 -0.010504661 -0.03944395 -0.007426045 -0.19370277 -0.082193114
-0.06970823 0.018992146 -0.04188092 -0.16220029 -0.06040996 0.006116588 -0.078577556 -0.058073126
-0.09708832 -0.05174538 -0.08544497 0.016199367 -0.016118744 0.119645886 -0.088381656 0.02445548
0.005512343 0.04672697 -0.010102628 -0.04461037 0.0923311 -0.0057448545 0.042642273 -0.10327665
0.039828725 -0.025368376 0.05299607 0.005009708 0.07452054 0.049437243 -0.018953545 -0.012201504
-0.018731203 -0.06297827 0.005933342 0.05856014 -0.06161436 -0.03723215 -0.06370151 -0.042074095
0.02310115 -0.040985387 -0.046313748 0.011594264 0.07115824 -0.035049897 -0.016948324 0.042189527
00000000: 6bae 50bd 87c5 1c3d 257c 78bd 784a 843c
00000010: ad87 4abd 47d5 aabd 02fe 53bc 823d eebc
00000020: 0971 5bbd 1cd4 a3bd 4fa1 eebd 5932 0abd
00000030: 09c7 38bd 8198 c8bd 0f43 11be 9404 1dbe
00000040: c2d8 4fbd d5ef e93d f87f 103d 1568 40bb
00000050: d0c9 3d3d 7846 8a3d 8f83 c5bc ff6d 8d3c
00000060: 7708 cebc b61a 613d aef7 413d c347 d83d
00000070: 0905 f7bc c704 853c 2517 2bbd 8f9d 983c
00000080: f79b d0bb c403 8dbd 7a7a 413d cc34 a83d
00000090: 2e1f 8b3d 1008 ebbc 73be 76bd 5353 98bd
000000a0: c8a6 20bc 7065 8dbd f302 44bc 8a07 db3c
000000b0: 6b82 29bc a224 92bd 3b02 81ba 744b a4bd
000000c0: 64c1 dfbd 6680 193d fa32 f3bc 1e4d 7ebd
000000d0: 2ee5 7ebc 84bc 91bc 2466 c23c 3133 cbbc
000000e0: 432b cabb 42f2 62bc f6d7 3d3b 82cd 173e
000000f0: 6c92 89bc c931 103d 8bd9 b63c 4561 12bd
00000100: 2836 b23b 4870 e2bc 45b9 47bc 931f 17bc
00000110: d0a8 6e3c 1955 333d d777 8d3d ec8b e5bd
00000120: f4d3 133c 9624 a9bd 1c31 973d f04d b6bc
00000130: fba1 7c3c 0570 0dbd a126 04bc 9f41 6cbd
00000140: 252c 34bd 18a2 363c eca8 c6bb 030c f53c
00000150: c5b1 3cbc 3545 efbc c628 253d 3749 013d
00000160: 5e4f f83c 14dc 283d 8d5e 633d 5700 5dbc
00000170: cb56 4a3d f54a fd3c 33a4 9dbd c57a 06bd
00000180: ff78 ffbc c4f1 c93d 95ff 423d 36fc 733d
00000190: 985f 5d3c 71c7 293d b2a4 1d3d 07e2 c2bd
000001a0: a03e 72bb 30a3 58bd 35d7 44bc e28a 6ebd
000001b0: 708d 263d 3fab 15bd 1179 0c3c 6d95 2a3c
000001c0: f915 903c d0e0 05be 399d da3b 1ceb 853d
000001d0: 7fba 69bd 5f3a 3bbc ad0f d6bd 9fcb 9ebd
000001e0: 80cb 773d 1f33 003d 117f 5b3d 51cf 85bc
000001f0: 2964 293b 34af 8b3d fc67 443d 997b 053e
00000200: d4bd 483b 0c20 25bb 9940 343d 0327 81bd
00000210: 1a77 da3c c259 a73d 4070 98ba e141 403c
00000220: b4f0 283c 36bc 58bd 3e67 9fbd c8da 2bbd
00000230: 1709 9ebd e68d 1f3b 91f0 223c 7d32 48bd
00000240: a57a 4c3d 4ee7 90bc 1ec8 823c 8924 f53c
00000250: 8e4b 853c 1bba 533d ec0f 0b3c 802a 98bd
00000260: 197e d53b 1ee5 f2bc 1c91 05bd 375b 73bd
00000270: 654b 49bd edc5 02be a13e 8cbd 29b1 ecbd
00000280: e173 f33c c78a db3b 148e 83bd f42a 61bd
00000290: 4f0a d4bd 08bc a33d 551d bb3c e54d d13c
000002a0: f43a 58bd c5d4 1c3d 2a92 3ebc ec4e 7abd
000002b0: 70f0 50bd 9942 c2bd 9ecf 233d 07ae 873d
000002c0: 8d4b 62bd 9378 ecbc 0829 2d3d c568 cdbc
000002d0: 96af 92bd b848 48bd 3974 063d 47eb 69bd
000002e0: 9fe5 273d 1b82 efbc 8304 0dbd b63b 10be
000002f0: 8315 1dbd 76a8 29bc 789c 0abd 3801 44bd
00000300: 20c8 88bb 6162 43bd fc85 5ebb 56e4 483d
00000310: ace8 023d 4f85 483d e974 90bd 6f4b 343d
00000320: 5d88 9b3c 741b 903d cf66 32bd be1b 2cbc
00000330: fb8f 21bd 2e56 f3bb 055a 46be dd54 a8bd
00000340: 30c3 8ebd 6b95 9b3c 548b 2bbd d517 26be
00000350: 6f70 77bd a96d c83b 45ed a0bd 16de 6dbd
00000360: 3ed6 c6bd f7f2 53bd c6fd aebd 89b4 843c
00000370: 750b 84bc e708 f53d 7101 b5bd dc56 c83c
00000380: e2a0 b43b c764 3f3d 7e85 25bc 5db9 36bd
00000390: 1618 bd3d 553f bcbb aaa9 2e3d b582 d3bd
000003a0: 7223 233d 57d1 cfbc 6812 593d 7a28 a43b
000003b0: 3a9e 983d b57e 4a3d 7744 9bbc d1e8 47bc
000003c0: 2e72 99bc c0fa 80bd 7b6c c23b c2dc 6f3d
000003d0: 575f 7cbd bd80 18bd f075 82bd e355 2cbd
000003e0: 9f3e bd3c 4be0 27bd 7cb3 3dbd def5 3d3c
000003f0: 69bb 913d 7b90 0fbd 36d7 8abc edce 2c3d

autoencoder.encoder1.4.bias f4 [80]
-0.07536337 0.14286986 0.07659432 0.09182496 0.05785758 -0.12498789 -0.04573487 0.06977802
-0.13103187 -0.13449737 0.09363961 0.10584268 0.025699368 -0.02293642 0.010663069 0.0550825
0.07982919 -0.18014044 0.010579137 -0.0572885 -0.08233552 0.039501604 0.07141441 -0.15269436
-0.003330187 -0.085978635 -0.019885652 0.09634659 0.037779275 0.05670992 -0.039419737 -0.08768837
-0.07734261 0.07331401 -0.07810112 0.019128224 -0.08946622 -0.040887434 0.10717407 0.080992214
0.062072556 0.074562654 -0.010537913 -0.09128928 -0.023660216 0.07543989 -0.010965149 -0.082409605
0.051570028 -0.14652488 -0.035977796 0.07009646 -0.038233478 0.071184225 -0.06152746 -0.13609986
-0.018540796 0.07333131 -0.17561068 -0.050561838 -0.16786642 -0.04055015 0.099591 -0.059692644
-0.18919775 0.0073694503 -0.072622076 0.06514501 -0.034561627 0.18184185 0.06642823 0.08607004
-0.051062975 -0.006553285 -0.023110889 -0.026047895 0.021267114 -0.020882891 0.023261445 0.077156655
00000000: 1c58 9abd 7a4c 123e 7cdd 9c3d ba0e bc3d
00000010: 12fc 6c3d a7f9 ffbd 7d54 3bbd c7e7 8e3d
00000020: 382d 06be aeb9 09be 20c6 bf3d 0cc4 d83d
00000030: 7b87 d23c 29e5 bbbc 27b4 2e3c 309e 613d
00000040: 7d7d a33d bc76 38be 1e54 2d3c 59a7 6abd
00000050: 869f a8bd 6fcc 213d b841 923d e95b 1cbe
00000060: 443f 5abb 9115 b0bd 3ce7 a2bc 5c51 c53d
00000070: 71be 1a3d a948 683d 9776 21bd f695 b3bd
00000080: cd65 9ebd a825 963d 7bf3 9fbd cbb2 9c3c
00000090: 113a b7bd 9579 27bd 147e db3d 3fdf a53d
000000a0: cb3f 7e3d 4eb4 983d 36a7 2cbc e0f5 babd
000000b0: 12d3 c1bc 3b80 9a3d 2ba7 33bc 5ec6 a8bd
000000c0: 183b 533d 9e0a 16be 745d 13bd bc8e 8f3d
000000d0: b59a 1cbd 09c9 913d 3804 7cbd c35d 0bbe
000000e0: dee2 97bc ba2e 963d 49d3 33be ee19 4fbd
000000f0: 2de5 2bbe ea17 26bd 5ef6 cb3d 4680 74bd
00000100: 0ebd 41be 6e7b f13b e2ba 94bd bf6a 853d
00000110: 7e90 0dbd c034 3a3e 860b 883d 7d45 b03d
00000120: 6927 51bd f0bc d6bb 0c53 bdbc 6562 d5bc
00000130: 5f38 ae3c 9912 abbc c98e be3c 4f04 9e3d

autoencoder.encoder2.0.weight f4 [24, 1280]
0.11540105 0.07997128 -0.16460276 0.098562405 0.03234219 -0.051277485 -0.016107062 0.07518011
-0.090077795 0.03038397 -0.12021547 0.035770264 0.03140934 0.021808498 -0.013409376 0.05126576
-0.0016462627 -0.045039587 0.005737091 0.005412559 0.086719275 0.023108028 0.009911303 -0.032553054
0.05596924 -0.07403738 -0.20046262 0.01814288 0.04736644 -0.016766345 -0.18687516 -0.06778051
0.0055364813 -0.03198733 0.024711303 0.078041 0.036977507 -0.008218814 0.053232916 -0.058568597
-0.06886343 -0.04317815 -0.12123369 -0.0044096624 -0.030615129 0.17426912 -0.12890425 0.03880191
-0.101107985 0.058933664 0.0047241366 0.031456966 0.015456904 -0.051687315 -0.03960528 -0.004598469
-0.08007397 -0.05664779 -0.0539453 -0.073311396 0.06630637 0.08676664 0.05005754 0.07949729
0.13676932 -0.05288929 0.06338652 0.014539833 -0.10533628 0.02424282 -0.029367931 -0.009669958
-0.05823762 0.15735681 -0.055846985 0.012339542 -0.047108654 0.08084231 0.016907074 -0.04382279
-0.08786189 0.03597457 0.027792262 0.060147595 -0.11935952 0.068159506 -0.012568706 0.041672885
0.051739167 0.025774552 0.042872503 0.029287333 0.011159004 -0.09024561 -0.08649663 0.059765935
0.025955444 0.11800068 0.1211786 0.068580136 -0.07390947 0.004245144 -0.083208114 -0.03476072
0.0830649 0.011745193 0.015510798 0.02737877 -0.04023421 -0.041859318 -0.059126645 0.00096140965
0.0046921335 0.019034564 0.014904095 -0.035373423 -0.034991026 -0.03148145 -0.06860139 0.024211397
0.045608684 0.01348875 0.03129502 -0.047614437 0.120622866 -0.014618997 -0.06386135 0.0067718457
0.048569176 0.06560657 -0.1774096 0.13089906 0.112331815 0.018224917 0.012531254 -0.048285846
-0.0510051 -0.042636495 -0.029259762 -0.07178869 0.048055395 -0.13056803 -0.015317588 0.042695574
-0.085965805 0.010462522 -0.074170135 -0.0022863303 -0.12763432 -0.044786796 -0.06170994 -0.029973125
0.08480217 0.18598041 -0.08069605 -0.11172182 -0.09344884 0.047133256 0.13917582 -0.084242396
0.045506887 -0.0031995939 0.15956227 0.00903611 -0.09583045 0.016991591 -0.0060921405 0.067222185
0.04964998 -0.057614405 -0.17294674 0.024941223 0.09694861 -0.013783353 0.07522763 -0.0059642913
0.040391162 -0.07225068 -0.04585587 -0.12439582 0.030089896 0.026245313 0.008196416 -0.038121387
-0.007887411 0.25860858 0.33521718 -0.05841624 0.027004939 -0.038714956 -0.030284094 0.001267604
0.016398868 -0.018092703 -0.033097588 -0.037103772 -0.03392429 0.018613664 -0.05528507 -0.007581634
0.0148786595 -0.06972683 0.5578826 0.0036630437 -0.059124637 0.01397028 -0.00022940821 -0.03212214
0.19366328 -0.0661237 0.027597051 0.023840338 -0.0111067025 -0.042617507 0.06884607 0.041320596
0.0035255305 -0.01964014 0.0055924836 0.042890742 -0.04872883 -0.19385247 -0.027690051 -0.02655066
-0.022215964 -0.035855494 0.08785605 -0.03935295 -0.035510316 -0.033266723 -0.031081567 0.116656855
-0.027943585 0.22879493 0.06674247 0.0114856325 0.011522061 -0.06520687 -0.0861671 0.028827896
-0.052907422 0.07205364 0.12420089 -0.08388795 -0.013379829 -0.004024443 -0.025810601 0.004929495
0.03363745 0.06556462 -0.069099136 0.046312857 0.044671845 -0.013331029 -0.082292356 0.007529102
00000000: 6357 ec3d fcc7 a33d a08d 28be 16db c93d
00000010: 3f79 043d 5708 52bd f5f2 83bc 08f8 993d
00000020: b57a b8bd cee7 f83c 8733 f6bd d783 123d
00000030: 15a7 003d bca7 b23c 00b3 5bbc 0cfc 513d
00000040: 69c7 d7ba 6e7b 38bd 35fe bb3b d65b b13b
00000050: e099 b13d 0c4d bd3c 0563 223c 5a56 05bd
00000060: 0040 653d e9a0 97bd 1346 4dbe 61a0 943c
00000070: 5003 423d 9359 89bc 345c 3fbe 82d0 8abd
00000080: 5f6b b53b 2605 03bd 5c6f ca3c f6d3 9f3d
00000090: ba75 173d 34a8 06bc c20a 5a3d a0e5 6fbd
000000a0: 4508 8dbd 92db 30bd 5e49 f8bd ee7e 90bb
000000b0: 94cc fabc 9b73 323e 7aff 03be c0ee 1e3d
000000c0: b411 cfbd 6d64 713d eecc 9a3b 05d9 003d
000000d0: f43e 7d3c 14b6 53bd 2539 22bd c1ae 96bb
000000e0: d2fd a3bd 8307 68bd bff5 5cbd 4924 96bd
000000f0: a2cb 873d b5b2 b13d 2309 4d3d 7acf a23d
00000100: 420d 0c3e 71a2 58bd cbd0 813d 7b38 6e3c
00000110: 8cba d7bd e198 c63c 0495 f0bc be6e 1ebc
00000120: 928a 6ebd 2522 213e cfbf 64bd ca2b 4a3c
00000130: 01f5 40bd a790 a53d b480 8a3c 877f 33bd
00000140: eff0 b3bd 125a 133d 99ac e33c 535d 763d
00000150: c472 f4bd 3697 8b3d f9ec 4dbc 30b1 2a3d
00000160: 73ec 533d 2725 d33c 149b 2f3d fdeb ef3c
00000170: 41d4 363c b1d2 b8bd 2525 b1bd 20cd 743d
00000180: 83a0 d43c 57aa f13d 7c2c f83d be73 8c3d
00000190: d95d 97bd d91a 8b3b 0469 aabd 4261 0ebd
000001a0: ee1d aa3d e96e 403c 0121 7e3c 7149 e03c
000001b0: a1cc 24bd ad74 2bbd c82e 72bd 1c07 7c3a
000001c0: 78c0 993b 60ee 9b3c 4e30 743c b9e3 10bd
000001d0: c052 0fbd b1f2 00bd e37e 8cbd fb56 c63c
000001e0: 2cd0 3a3d ebff 5c3c 352f 003d 5b07 43bd
000001f0: 1f09 f73d 8584 6fbc bdc9 82bd 5ce6 dd3b
00000200: 79f0 463d bd5c 863d ddaa 35be 670a 063e
00000210: 390e e63d 6c4c 953c e44f 4d3c 61c7 45bd
00000220: b9ea 50bd 9ba3 2ebd 2bb2 efbc f305 93bd
00000230: bcd5 443d a0b3 05be 9ff6 7abc 8ee1 2e3d
00000240: d70e b0bd ff6a 2b3c 83e6 97bd 42d6 15bb
00000250: 92b2 02be 5c72 37bd 90c3 7cbd 338a f5bc
00000260: c3ac ad3d a671 3e3e f843 a5bd 69ce e4bd
00000270: 1b62 bfbd cd0e 413d 1b84 0e3e 4787 acbd
00000280: 6e65 3a3d 47b0 51bb 4b64 233e 310c 143c
00000290: c142 c4bd f331 8b3c 94a0 c7bb c9ab 893d
000002a0: c75d 4b3d 15fd 6bbd f318 31be 8951 cc3c
000002b0: fe8c c63d 93d3 61bc f210 9a3d 1a70 c3bb
000002c0: 3471 253d 2af8 93bd 5dd3 3bbd 3cc3 febd
000002d0: 167f f63c 6900 d73c 434a 063c 2c25 1cbd
000002e0: 333a 01bc 5868 843e 96a1 ab3e de45 6fbd
000002f0: 7639 dd3c 9393 1ebd 5916 f8bc bb25 a63a
00000300: eb56 863c 2637 94bc 5691 07bd 20fa 17bd
00000310: 32f4 0abd af7b 983c 9972 62bd 5b6f f8bb
00000320: 9fc5 733c f1cc 8ebd 65d1 0e3f ad0f 703b
00000330: ad2c 72bd 9ae3 643c 4c8d 70b9 8192 03bd
00000340: ab4f 463e dd6b 87bd 3613 e23c d04c c33c
00000350: e3f8 35bc b28f 2ebd 2bff 8c3d c93f 293d
00000360: 960c 673b 5ce4 a0bc 2741 b73b 34ae 2f3d
00000370: e297 47bd 4381 46be 3fd6 e2bc c580 d9bc
00000380: 41fe b5bc 36dd 12bd dfed b33d 8f30 21bd
00000390: 4473 11bd b042 08bd c59e febc cae9 ee3d
000003a0: f2e9 e4bc 3849 6a3e 47b0 883d 3c2e 3c3c
000003b0: 07c7 3c3c 2e8b 85bd 6078 b0bd 7b28 ec3c
000003c0: 74b5 58bd dc90 933d 095d fe3d 72cd abbd
000003d0: 1237 5bbc 7adf 83bb c170 d3bc 9a87 a13b
000003e0: 6cc7 093d be46 863d d983 8dbd 8db2 3d3d
000003f0: d3f9 363d 636a 5abc e588 a8bd afb6 f63b

autoencoder.encoder2.0.bias f4 [24]
-0.01716016 -0.0089919185 -0.048060283 0.06274528 0.03965794 -0.0062829494 -0.004082622 -0.08352628
-0.021036612 -0.037898514 0.0036631548 -0.027325224 0.056817416 0.038011998 0.04967849 0.060227238
-0.03108359 0.032174375 -0.01346957 0.0012975457 -0.05173632 -0.026112756 0.0067106923 -0.035141993
00000000: 7793 8cbc d752 13bc dcda 44bd 9980 803d
00000010: 5d70 223d 33e1 cdbb 84c7 85bb d40f abbd
00000020: f954 acbc 793b 1bbd 8a11 703b 26d9 dfbc
00000030: 61b9 683d 78b2 1b3d ac7b 4b3d d6b0 763d
00000040: 03a3 febc 47c9 033d 79af 5cbc 6912 aa3a
00000050: 77e9 53bd 6bea d5bc 5ee5 db3b 0df1 0fbd

autoencoder.decoder2.0.weight f4 [1280, 24]
-0.020869918 -0.227118 -0.31592548 0.23302843 -0.039566446 -0.043840874 -0.105563276 0.0104142
0.09038674 -0.28105637 -0.20642845 0.0132989045 0.15567687 -0.1090935 0.3345667 0.33409095
-0.06795418 0.043612063 0.14380491 -0.046111356 -0.14495023 0.3670923 0.2527665 0.039587464
0.17827748 0.049195375 0.2575893 -0.014238517 -0.14635481 0.039848942 -0.13563971 0.21258847
0.356143 -0.05294737 -0.030472854 0.2327801 0.066874966 -0.07275328 -0.015832355 0.0058235032
0.23409536 -0.060911264 -0.010314773 -0.093778044 -0.1314772 -0.41485846 -0.20711802 0.1401574
0.10395151 -0.0566815 -0.39962402 0.36275962 -0.05401907 0.1984505 -0.011311714 -0.2883167
-0.037733346 -0.08307822 -0.027629394 -0.29277787 -0.11248554 0.066204034 0.027007362 0.07144758
-0.1155635 0.07218632 0.034130294 0.07708189 0.07060581 -0.25044948 0.060959898 0.083964095
7.894601e-06 0.19763535 -0.37272218 0.29984406 -0.3502483 0.070696555 -0.20964882 -0.11012636
-0.30283803 0.1231047 0.09865669 -0.058635876 -0.078438565 -0.20067751 0.27110288 -0.022387315
-0.032086235 -0.08381398 0.06160049 0.01078556 -0.010648118 -0.08098245 -0.0783236 -0.067818396
-0.118006736 -0.20151941 -0.22014989 0.40949357 -0.14789708 -0.028391674 -0.036575757 0.10332547
0.22607473 -0.16548245 -0.16997547 -0.19174856 0.09740315 0.054357182 0.07920297 0.23272549
0.11434861 0.04663159 0.050364394 0.12542194 0.058490228 0.14648256 0.016635641 -0.22075054
0.08910977 0.0067302156 -0.086287394 0.065611325 0.101195686 0.09383571 -0.17927264 0.11959444
0.22831884 -0.07605786 0.13731326 -0.43377423 -0.2164299 0.00816776 -0.010156649 -0.007209146
-0.062270783 -0.1263659 0.2096212 0.087018035 -0.058992703 -0.107131414 0.09398994 -0.14634918
-0.061008435 -0.339499 -0.34523 0.08558112 0.20623226 0.049548488 -0.17575571 -0.08857444
0.025608806 0.21827923 0.00802748 -0.24454229 -0.027054451 0.10124413 -0.14134246 -0.061224002
-0.25076345 0.046222337 0.031988196 0.21078542 0.011145653 0.1278394 -0.08666598 -0.084354945
-0.04880406 -0.008700476 0.08530499 0.01576409 -0.082516246 -0.19145441 0.0027669359 0.2582137
0.040219758 0.22093329 -0.11882742 0.14782383 0.07706392 0.026159896 0.15290657 -0.016675353
-0.10680824 -0.07178905 -0.023046512 0.0035750696 -0.087034255 -0.2229108 -0.18298012 0.005794765
0.08008553 -0.19076614 0.057137925 0.047478687 -0.3324663 -0.20487072 -0.31735238 0.23315099
0.0902042 -0.40253198 -0.20482366 -0.27695546 0.08876188 -0.043480482 -0.011039141 0.16327181
-0.03934783 0.287631 -0.1169277 -0.034709055 -0.031212267 0.049643435 -0.023872392 -0.053317722
-0.06025057 0.046152808 0.16270083 0.044892333 0.09915822 -0.045733415 -0.07939582 -0.038311847
0.11143809 -0.024744201 0.07424309 0.020068277 0.14459185 -0.08676985 0.094030954 0.15430263
-0.026532946 0.13608578 -0.028477155 0.08042485 -0.26450372 -0.053906552 -0.033801164 -0.07767685
0.028315993 0.0636091 -0.16857462 -0.07446127 0.06014378 -0.028887838 -0.198038 -0.1869034
0.104149245 0.23664024 -0.08190336 0.10158049 0.09713032 -0.06570923 -0.20636338 0.29457918
00000000: 64f7 aabc 9f91 68be fcc0 a1be 019f 6e3e
00000010: 6d10 22bd 7d92 33bd 8f31 d8bd 52a0 2a3c
00000020: af1c b93d 9fe6 8fbe fb61 53be a6e3 593c
00000030: c269 1f3e 6a6c dfbd 544c ab3e f80d ab3e
00000040: 902b 8bbd 90a2 323d 9841 133e 43df 3cbd
00000050: d56d 14be 86f3 bb3e 9c6a 813e 7726 223d
00000060: 5f8e 363e 1781 493d bfe2 833e ab48 69bc
00000070: 09de 15be a538 233d 23e5 0abe cbb0 593e
00000080: 6058 b63e 57df 58bd 35a2 f9bc e85d 6e3e
00000090: bef5 883d acff 94bd dbb2 81bc 16d3 be3b
000000a0: b2b6 6f3e 177e 79bd 4bff 28bc b40e c0bd
000000b0: f6a1 06be 5468 d4be bf16 54be 6c85 0f3e
000000c0: 87e4 d43d dc2a 68bd 859b ccbe a1bb b93e
000000d0: 1a43 5dbd 9c36 4b3e c454 39bc 3f9e 93be
000000e0: 488e 1abd ea24 aabd 0a57 e2bc fbe6 95be
000000f0: d25e e6bd fb95 873d 8b3e dd3c 1c53 923d
00000100: 8eac ecbd 6cd6 933d 35cc 0b3d 1cdd 9d3d
00000110: c799 903d ea3a 80be 16b1 793d 5ef5 ab3d
00000120: 0e73 0437 ec60 4a3e 71d5 bebe 2985 993e
00000130: bf53 b3be 5bc9 903d 2eae 56be ee89 e1bd
00000140: 960d 9bbe 511e fc3d 850c ca3d 2c2c 70bd
00000150: 66a4 a0bd 687e 4dbe ffcd 8a3e 9a65 b7bc
00000160: db6c 03bd aaa6 abbd cc50 7c3d ebb5 303c
00000170: 7275 2ebc 20da a5bd 2068 a0bd 5fe4 8abd
00000180: 84ad f1bd 1b5b 4ebe f96e 61be 24a9 d13e
00000190: 5572 17be a895 e8bc 76d0 15bd 4e9c d33d
000001a0: 2280 673e 3b74 29be 0d0e 2ebe bc59 44be
000001b0: 4d7b c73d a3a5 5e3d 2b35 a23d 974f 6e3e
000001c0: 9b2f ea3d c400 3f3d e54a 4e3d 9c6e 003e
000001d0: 7393 6f3d 86ff 153e 7847 883c 6e0c 62be
000001e0: 2f7f b63d 2489 dc3b 72b7 b0bd 3b5f 863d
000001f0: af3f cf3d f02c c03d 3f93 37be eeed f43d
00000200: 6acc 693e 39c4 9bbd d99b 0c3e a817 debe
00000210: cd9f 5dbe 12d2 053c 1368 26bc b33a ecbb
00000220: a60f 7fbd 1066 01be f1a6 563e 8336 b23d
00000230: 55a2 71bd b767 dbbd cc7d c03d 8fdc 15be
00000240: fbe3 79bd d0d2 adbe fdc1 b0be 2745 af3d
00000250: 8d2e 533e 5bf3 4a3d 4ef9 33be 8466 b5bd
00000260: 8fc9 d13c 9784 5f3e b185 033c 4b69 7abe
00000270: 4ca1 ddbc 1559 cf3d 14bc 10be 05c6 7abd
00000280: 1164 80be a253 3d3d 0e06 033d 22d8 573e
00000290: 429c 363c 55e8 023e ef7d b1bd 49c2 acbd
000002a0: c4e6 47bd 718c 0ebc 62b4 ae3d b123 813c
000002b0: 47fe a8bd a00c 44be 7b55 353b 9634 843e
000002c0: 79bd 243d 563c 623e ca5b f3bd 215f 173e
000002d0: b0d3 9d3d 474d d63c 8a93 1c3e c09a 88bc
000002e0: 47be dabd 2306 93bd 0acc bcbc b74b 6a3b
000002f0: 043f b2bd bb42 64be 245f 3bbe 03e2 bd3b
00000300: e203 a43d 3358 43be 7509 6a3d 0379 423d
00000310: 0639 aabe a1c9 51be 037c a2be 22bf 6e3e
00000320: fbbc b83d ac18 cebe 4bbd 51be 1bcd 8dbe
00000330: cac8 b53d 9718 32bd 83dd 34bc ba30 273e
00000340: 312b 21bd 5f44 933e ca77 efbd 152b 0ebd
00000350: deb0 ffbc ea56 4b3d 0990 c3bc af63 5abd
00000360: 4dc9 76bd ba0a 3d3d 0c9b 263e 06e1 373d
00000370: 7713 cb3d f652 3bbd 479a a2bd e2ec 1cbd
00000380: a739 e43d 5ab4 cabc c30c 983d 3a66 a43c
00000390: e30f 143e 64b4 b1bd 4d93 c03d 8201 1e3e
000003a0: 9f5b d9bc 125a 0b3e ec48 e9bc c9b5 a43d
000003b0: 086d 87be 1ecd 5cbd 1773 0abd 0a15 9fbd
000003c0: f1f6 e73c 7d45 823d d39e 2cbe 267f 98bd
000003d0: 5359 763d 30a6 ecbc 79ca 4abe 9b63 3fbe
000003e0: 334c d53d d251 723e f3bc a7bd 6f09 d03d
000003f0: 43ec c63d 9092 86bd ec50 53be 15d3 963e

autoencoder.decoder2.0.bias f4 [1280]
0.1822441 -0.27526328 0.20717996 0.27642435 0.18016757 0.19875115 0.13409752 -0.2957389
0.096601464 0.09094738 0.18632177 0.2692904 0.11372515 -0.47692657 0.16453052 0.36898
-0.11919472 -0.016519023 0.2154925 -0.081499726 -0.17166509 0.19000553 -0.20054978 0.3127534
0.0957999 -0.10511918 0.122790284 0.3499149 -0.13229066 0.14263067 0.15923198 0.010415227
-0.41096497 -0.10123775 -0.70504004 0.10657377 0.1438151 0.03788292 0.11705865 -0.21519068
-0.54455763 -0.26814967 -0.1512212 0.07618961 -0.014257596 0.37604752 -0.32987413 0.25547707
-0.39100325 -0.49310908 0.12133146 -0.47706023 -0.15015115 -0.132194 -0.48815867 0.27563035
-0.09508433 -0.31864643 0.054271173 0.07461165 -0.14616916 -0.18786512 -0.034646187 0.00053424947
-0.03548826 -0.081173316 -0.16349074 -0.43852195 -0.83539975 0.053861488 0.13266769 -0.36368692
0.048084583 0.22922601 0.06134142 0.31576127 -0.079183154 -0.17465508 0.13914919 0.18116437
0.016393127 0.16011047 -0.056555875 -0.2866441 -0.63304216 -0.07501215 0.092526056 0.09233535
-0.17194167 0.44926393 0.055181738 -0.30514732 -0.38300046 0.24229038 -0.050711736 0.1588841
0.02010888 0.27317458 0.022460403 -0.13946185 -0.23569469 0.061128564 -0.24362198 0.115753435
-0.13199662 -0.18021658 -0.2229252 0.18476209 0.1319287 0.2242392 0.25947 0.24790145
-0.12587757 0.0346764 -0.2800934 0.1397646 -0.38558406 0.17729029 0.006871336 0.08656809
0.07191904 0.21136333 0.17887342 -0.15232068 -0.26234558 -0.3136551 -0.16915984 0.107218586
-0.052168246 -0.69636244 -0.16279013 0.35532546 -0.29091173 -0.08133955 -0.13635768 0.1656408
-0.558252 -0.004132901 0.17943534 -0.18188871 -0.475587 -0.19875818 -0.26979068 -0.16500765
-0.33018294 0.06273008 0.09873676 -0.49710098 -0.06632812 0.005663344 0.031468168 0.07595546
0.0516801 -0.4937639 -0.05376855 0.2855408 0.23110688 -0.1572964 -0.18421869 0.15359548
-0.42799965 -0.040680207 -1.1459348 -0.25730637 0.25301674 -0.37631157 0.24275862 -0.3515352
0.08200402 0.1673225 -0.44538984 -0.18921924 0.24511631 0.20565727 0.05531511 0.14644183
-0.18534227 0.17870797 -0.026095016 -0.08418525 0.24799363 0.08739703 0.13754247 0.17953853
0.10523778 0.002816638 -0.33901307 0.1509486 -0.24355528 0.08677564 0.15426211 0.1028965
0.18023409 -0.2810147 -0.09751647 -0.031607635 0.13509485 0.046951443 -0.30370516 -0.06731171
0.14124674 0.01817995 0.050565287 -0.013665264 0.014810849 0.264334 -0.053869497 -0.5575597
-0.0051178522 0.13033344 0.34951133 0.09158339 0.22157052 -0.17035964 -0.32654166 0.10123735
0.057894047 0.266183 0.026317442 -0.4380154 -0.52289134 0.008438914 -0.21344633 -0.23423308
0.17979015 -0.31617972 0.052521143 0.22120923 -0.3814653 0.08312538 -0.59769577 -0.79936665
-0.062452093 0.1321404 -0.26211822 0.043479085 -0.2772328 0.34431347 0.3193893 0.20928456
-0.3035904 -0.208026 0.16569686 0.15988435 -0.0016749153 -0.45830518 0.085527144 -0.5177579
-0.1949812 -0.21520005 0.17996913 0.2510288 -0.3587829 -0.7019208 0.22336885 0.0978725
00000000: 339e 3a3e 4fef 8cbe fc26 543e 7e87 8d3e
00000010: d97d 383e 6c85 4b3e dc50 093e 176b 97be
00000020: fdd6 c53d 9f42 ba3d 22cb 3e3e 6ee0 893e
00000030: bbe8 e83d b82f f4be b07a 283e f2ea bc3e
00000040: 5d1c f4bd e752 87bc 11aa 5c3e 54e9 a6bd
00000050: f9c8 2fbe cf90 423e ec5c 4dbe 3721 a03e
00000060: bd32 c43d ba48 d7bd 7979 fb3d 0c28 b33e
00000070: 3477 07be c60d 123e b50d 233e a1a4 2a3c
00000080: 006a d2be bd55 cfbd 817d 34bf 5943 da3d
00000090: 4444 133e 1f2b 1b3d 72bc ef3d f25a 5cbe
000000a0: 2168 0bbf ea4a 89be bbd9 1abe 4c09 9c3d
000000b0: b198 69bc 4d89 c03e 43e5 a8be e4cd 823e
000000c0: 9431 c8be cb78 fcbe a17c f83d 3d41 f4be
000000d0: 39c1 19be dd5d 07be efef f9be 6c1f 8d3e
000000e0: 93bb c2bd a025 a3be 734b 5e3d fecd 983d
000000f0: 5ead 15be b75f 40be 29e9 0dbd e00c 0c3a
00000100: 235c 11bd 323e a6bd 1e6a 27be f385 e0be
00000110: c2dc 55bf dd9d 5c3d 0ada 073e 2c35 babe
00000120: 57f4 443d 39ba 6a3e 2441 7b3d 76ab a13e
00000130: c72a a2bd c8d8 32be 207d 0e3e 2783 393e
00000140: e14a 863c 00f4 233e 22a7 67bd 04c3 92be
00000150: 0d0f 22bf f89f 99bd 4d7e bd3d 511a bd3d
00000160: 7a11 30be ec05 e63e 3f06 623d 453c 9cbe
00000170: a318 c4be f81a 783e 1cb7 4fbd 83b2 223e
00000180: 61bb a43c 8add 8b3e e1fe b73c 16cf 0ebe
00000190: f359 71be f261 7a3d 0a78 79be 2310 ed3d
000001a0: 1f2a 07be b28a 38be 8146 64be 4632 3d3e
000001b0: 5118 073e f69e 653e 40d9 843e e1d9 7d3e
000001c0: 0de6 00be d708 0e3d 6768 8fbe 741e 0f3e
000001d0: 466b c5be 968b 353e f228 e13b 9c4a b13d
000001e0: 4a4a 933d a16f 583e 982a 373e f4f9 1bbe
000001f0: 2952 86be 6797 a0be 3d38 2dbe 6b95 db3d
00000200: 5fae 55bd cf44 32bf 75b2 26be 38ed b53e
00000210: 62f2 94be 5a95 a6bd 59a1 0bbe be9d 293e
00000220: 9ae9 0ebf 496d 87bb e6bd 373e 0941 3abe
00000230: 2480 f3be 4487 4bbe 0122 8abe c4f7 28be
00000240: bd0d a9be a178 803d 8036 ca3d 0584 febe
00000250: 0ad7 87bd 9393 b93b c4e4 003d 898e 9b3d
00000260: 83ae 533d 9fce fcbe 693c 5cbd 6732 923e
00000270: 48a7 6c3e 4f12 21be d3a3 3cbe 2248 1d3e
00000280: c522 dbbe 4aa0 26bd fead 92bf a9bd 83be
00000290: 698b 813e e9ab c0be b795 783e 6cfc b3be
000002a0: b9f1 a73d 9756 2b3e 230a e4be b0c2 41be
000002b0: c5ff 7a3e d297 523e 1992 623d d9f4 153e
000002c0: 5dca 3dbe 39ff 363e 37c5 d5bc 5169 acbd
000002d0: 0bf2 7d3e 37fd b23d efd7 0c3e f3d8 373e
000002e0: e886 d73d 5897 383b 1f93 adbe 4592 1a3e
000002f0: 8e66 79be 6db7 b13d e3f6 1d3e 66bb d23d
00000300: 498f 383e 29e1 8fbe b7b6 c7bd 0277 01bd
00000310: 4e56 0a3e 2850 403d 3e7f 9bbe b9da 89bd
00000320: fca2 103e 1eee 943c 8c1d 4f3d 45e4 5fbc
00000330: 34a9 723c c956 873e 43a6 5cbd 3cbc 0ebf
00000340: a8b3 a7bb 2176 053e 26f3 b23e 1390 bb3d
00000350: 62e3 623e c272 2ebe 7830 a7be 8755 cf3d
00000360: 4f22 6d3d 2349 883e ad97 d73c 8e43 e0be
00000370: 35dc 05bf 5f43 0a3c ad91 5abe ccda 6fbe
00000380: e91a 383e 4fe2 a1be 6920 573d ac84 623e
00000390: 6b4f c3be a43d aa3d 9702 19bf 4ba3 4cbf
000003a0: c4cd 7fbd d04f 073e 5c34 86be 2017 323d
000003b0: 75f1 8dbe db49 b03e ff86 a33e b14e 563e
000003c0: 3370 9bbe c504 55be 70ac 293e b9b8 233e
000003d0: d588 dbba faa6 eabe db28 af3d c88b 04bf
000003e0: 27a9 47be 675d 5cbe d449 383e d986 803e
000003f0: 64b2 b7be 15b1 33bf ceba 643e 6171 c83d

autoencoder.decoder1.0.weight f4 [80, 40, 3, 3]
-0.06254537 0.046351727 0.004042452 0.1455716 0.10595665 0.062314425 0.06775082 0.19769756
0.055851497 0.061412055 0.2758216 0.12803803 0.16710636 0.3302011 0.1869569 0.17827785
0.2887163 0.10496123 -0.04724113 0.00814391 -0.14219916 -0.06135512 -0.23639682 -0.15523437
-0.24863116 -0.31937832 -0.03970751 -0.121323325 0.02764972 0.100090496 0.048758183 0.083896436
0.10015809 0.05807212 0.06657887 0.10760298 0.02612886 -0.17508301 0.127925 0.022272032
0.057804562 0.1070964 -0.09608865 0.12684928 0.15980203 -0.05778884 0.03894872 -0.031524267
0.0030999295 -0.108723804 -0.03579426 -0.07255889 -0.11265958 -0.0048435316 0.040888265 0.11601338
0.03888623 0.15977488 0.18371244 0.077813804 0.038125824 0.23691015 0.15907 0.10564465
0.13356404 -0.07380315 0.14028072 0.16726145 0.13694705 -0.026895719 0.14136367 0.08184673
-0.04885129 0.12352262 0.0814953 0.14461921 0.19606255 0.12100518 0.1616942 0.10149874
0.15651539 -0.023317147 0.23627499 0.018858489 -0.08957397 0.06496205 0.26989064 -0.21063039
0.037972037 -0.17587619 -0.034318153 0.06615419 0.03887062 0.004941703 0.15093537 0.09618805
0.057968173 0.114361346 0.10971169 -0.018479224 0.03169777 0.08069573 0.054266803 -0.02873632
0.046808343 -0.03313877 0.06871218 0.15503038 -0.13802865 -0.051611997 0.10409909 0.087564416
0.08770915 0.030176671 -0.008493952 0.1749643 0.14242144 -0.08212148 0.15465514 0.06970439
0.059168816 0.035977896 0.08681367 0.047944438 0.06053456 0.11754876 -0.022136776 -0.05271636
0.11774109 0.16246805 0.09561166 -0.025465772 0.0665474 -0.04584252 0.018703762 0.12862915
0.02107268 -0.08494895 0.063407086 -0.025998605 -0.2049794 0.122407675 0.07709058 -0.057364948
-0.040910978 0.049091235 0.08933839 -0.07235901 0.08548809 0.15014535 -0.16422242 0.2001501
0.19377339 0.037437048 0.04123644 -0.003275637 -0.061317265 0.041838028 0.07957246 -0.114267364
0.12511882 0.18121196 -0.19412014 0.091291346 -0.23762171 0.066968694 0.04859051 -0.040321194
-0.01647845 0.069236785 0.10315531 -0.23210071 -0.2772145 -0.21313049 -0.03719664 -0.106448665
0.07833571 -0.15755524 -0.008008746 -0.060300075 0.13514856 0.08505942 0.04335886 -0.123284206
0.108800985 0.30508065 -0.061250508 0.23682177 0.15923639 0.029820086 0.07614282 0.04942882
0.07400901 0.051998317 0.1322515 0.10082943 0.18498427 0.08300002 -0.07116181 -0.052462406
0.015118786 -0.08732056 0.292189 0.14370538 -0.09498035 0.1319619 0.04128232 -0.04468521
0.041611265 0.0055547887 -0.16816461 -0.045389827 0.05388295 0.0038837825 0.20454986 0.10087811
-0.21922891 -0.33762065 0.1495698 -0.13625501 -0.21530329 0.06683399 -0.23073219 -0.050863337
0.19072036 0.027156796 0.043179058 -0.08767164 0.026494442 0.2372208 0.13133043 0.026247345
0.18311512 -0.040592745 0.0719673 0.06369949 0.096059985 -0.03651711 0.06791551 -0.017040472
0.036670215 0.09431836 0.09211181 -0.07603105 0.123525485 -0.105541974 -0.03778715 -0.048043344
-0.17689162 -0.0625792 -0.23589012 -0.19745782 -0.034303788 -0.06936624 0.10285487 0.055120807
00000000: c917 80bd 4fdb 3d3d 8c76 843b b910 153e
00000010: cdff d83d 693d 7f3d f1c0 8a3d 3b71 4a3e
00000020: 8ac4 643d 358b 7b3d 7d38 8d3e 671c 033e
00000030: ee1d 2b3e 1e10 a93e a171 3f3e 788e 363e
00000040: 9fd2 933e eaf5 d63d ea7f 41bd 096e 053c
00000050: a89c 11be 824f 7bbd 0212 72be c2f5 1ebe
00000060: 2b99 7ebe 8e85 a3be 58a4 22bd 5d78 f8bd
00000070: aa81 e23c 3ffc cc3d a9b6 473d e5d1 ab3d
00000080: af1f cd3d 08dd 6d3d 815a 883d f45e dc3d
00000090: 310c d63c f648 33be c5fe 023e d673 b63c
000000a0: 7ac4 6c3d 5b55 db3d 20ca c4bd c7e4 013e
000000b0: 25a3 233e feb3 6cbd b188 1f3d 971f 01bd
000000c0: 3028 4b3b 96aa debd 019d 12bd c199 94bd
000000d0: 11ba e6bd 7db6 9ebb 747a 273d 6c98 ed3d
000000e0: 2b47 1f3d 079c 233e 1d1f 3c3e d85c 9f3d
000000f0: d329 1c3d 9398 723e 3fe3 223e 395c d83d
00000100: 03c5 083e 1b26 97bd c0a5 0f3e 9646 2b3e
00000110: d93b 0c3e 6954 dcbc a3c1 103e 429f a73d
00000120: 4a18 48bd 6df9 fc3d 02e7 a63d 0f17 143e
00000130: 9fc4 483e 90d1 f73d 2a93 253e 92de cf3d
00000140: 9245 203e 9a03 bfbc 12f2 713e 1e7d 9a3c
00000150: 8f72 b7bd d30a 853d 1b2f 8a3e 7eaf 57be
00000160: 9188 1b3d e318 34be 3191 0cbd d97b 873d
00000170: cd36 1f3d 02ee a13b cd8e 1a3e 3efe c43d
00000180: 0970 6d3d 4836 ea3d 86b0 e03d be61 97bc
00000190: 85d5 013d ce43 a53d de46 5e3d 6e68 ebbc
000001a0: 1bba 3f3d 85bc 07bd f9b8 8c3d 49c0 1e3e
000001b0: 6257 0dbe 1a67 53bd e731 d53d f954 b33d
000001c0: dba0 b33d 1135 f73c 382a 0bbc d729 333e
000001d0: edd6 113e 4e2f a8bd eb5d 1e3e 2dc1 8e3d
000001e0: 005b 723d 8f5d 133d 5ecb b13d 6361 443d
000001f0: 16f3 773d 67bd f03d 2f58 b5bc 1ced 57bd
00000200: 3e22 f13d 065e 263e 0cd0 c33d 989d d0bc
00000210: 014a 883d 5ec5 3bbd a238 993c 5cb7 033e
00000220: 9da0 ac3c b7f9 adbd 93db 813d 07fb d4bc
00000230: 1fe6 51be e0b0 fa3d aae1 9d3d 82f7 6abd
00000240: 4592 27bd e413 493d 0cf7 b63d f630 94bd
00000250: 6114 af3d b4bf 193e ec29 28be 26f4 4c3e
00000260: 886c 463e 9757 193d 8be7 283d 12ac 56bb
00000270: d027 7bbd 5a5e 2b3d e3f6 a23d 0205 eabd
00000280: 261f 003e a18f 393e 6ec7 46be f5f6 ba3d
00000290: 1b53 73be e226 893d d806 473d d627 25bd
000002a0: d0fd 86bc 04cc 8d3d 1743 d33d cfab 6dbe
000002b0: 0fef 8dbe e13e 5abe 815b 18bd c201 dabd
000002c0: 796e a03d 2956 21be 1e37 03bc 36fd 76bd
000002d0: 6264 0a3e a233 ae3d 0f99 313d 6e7c fcbd
000002e0: 0dd3 de3d 8833 9c3e d0e1 7abd 6881 723e
000002f0: dd0e 233e 4149 f43c c4f0 9b3d e075 4a3d
00000300: 0992 973d 30fc 543d f06c 073e a97f ce3d
00000310: 846c 3d3e eafb a93d 48bd 91bd d2e2 56bd
00000320: c9b4 773c 1fd5 b2bd cc99 953e 8127 133e
00000330: 0f85 c2bd 0521 073e a617 293d d707 37bd
00000340: 9370 2a3d f204 b63b 5833 2cbe afea 39bd
00000350: 5eb4 5c3d 0f87 7e3b 8575 513e 2f99 ce3d
00000360: 8b7d 60be 9ddc acbe d328 193e 6f86 0bbe
00000370: 7778 5cbe 42e0 883d 0f45 6cbe 1356 50bd
00000380: 334c 433e ee77 de3c 86dc 303d 308d b3bd
00000390: df0a d93c 02ea 723e 7c7b 063e ac04 d73c
000003a0: 8882 3b3e 9444 26bd 9763 933d e174 823d
000003b0: 19bb c43d f792 15bd 4917 8b3d 7698 8bbc
000003c0: 8233 163d fc29 c13d 1ea5 bc3d 2bb6 9bbd
000003d0: eefa fc3d 6426 d8bd b3c6 1abd 19c9 44bd
000003e0: 1423 35be 8629 80bd 2e8d 71be 6232 4abe
000003f0: 2182 0cbd e30f 8ebd 93a5 d23d 5bc6 613d

autoencoder.decoder1.0.bias f4 [40]
-0.00029296943 -0.8078191 0.078775935 0.06317371 0.031747464 0.13543573 -0.18176492 -0.1829132
0.02327948 -0.26447675 0.0025362172 -0.10143809 -0.4559918 0.023418453 0.069868766 0.13154273
-0.256033 0.08989003 0.0034758877 0.03914164 -0.10073602 -0.013523801 -0.0033270696 -0.031497605
0.06905919 -0.042922147 0.11791349 0.026972244 0.0331055 -0.027827406 -0.0034140302 0.033432875
-0.12007825 0.07771425 -0.10316854 -0.13081235 -0.08326347 0.0334463 -0.082674965 0.051412508
00000000: b199 99b9 3ccd 4ebf 4755 a13d 3861 813d
00000010: a109 023d aaaf 0a3e 9520 3abe 994d 3bbe
00000020: 9cb4 be3c 7f69 87be aa36 263b c6be cfbd
00000030: c277 e9be 0ed8 bf3c 5b17 8f3d 23b3 063e
00000040: c216 83be 4418 b83d b8cb 633b fc52 203d
00000050: b04e cebd ef92 5dbc f70a 5abb a203 01bd
00000060: e86e 8d3d 22cf 2fbd a17c f13d e5f4 dc3c
00000070: a299 073d 4df6 e3bc ecbd 5fbb e9f0 083d
00000080: 96eb f5bd a628 9f3d 074a d3bd acf3 05be
00000090: 0a86 aabd fdfe 083d 7e51 a9bd ec95 523d
